(66, 432, 432) (66, 432, 432) (19, 432, 432)
train shape (X, Y): ((66, 432, 432, 1),(66, 432, 432, 1))
test shape (X): ((19, 432, 432, 1))
Model: "functional_1"
_________________________________________________________________
Layer (type)                 Output Shape              Param #   
=================================================================
input_1 (InputLayer)         [(None, 432, 432, 1)]     0         
_________________________________________________________________
conv2d (Conv2D)              (None, 432, 432, 64)      640       
_________________________________________________________________
max_pooling2d (MaxPooling2D) (None, 216, 216, 64)      0         
_________________________________________________________________
conv2d_1 (Conv2D)            (None, 216, 216, 32)      18464     
_________________________________________________________________
max_pooling2d_1 (MaxPooling2 (None, 108, 108, 32)      0         
_________________________________________________________________
conv2d_2 (Conv2D)            (None, 108, 108, 16)      4624      
_________________________________________________________________
max_pooling2d_2 (MaxPooling2 (None, 54, 54, 16)        0         
_________________________________________________________________
conv2d_transpose (Conv2DTran (None, 54, 54, 16)        2320      
_________________________________________________________________
up_sampling2d (UpSampling2D) (None, 108, 108, 16)      0         
_________________________________________________________________
conv2d_transpose_1 (Conv2DTr (None, 108, 108, 32)      4640      
_________________________________________________________________
up_sampling2d_1 (UpSampling2 (None, 216, 216, 32)      0         
_________________________________________________________________
conv2d_transpose_2 (Conv2DTr (None, 216, 216, 64)      18496     
_________________________________________________________________
up_sampling2d_2 (UpSampling2 (None, 432, 432, 64)      0         
_________________________________________________________________
conv2d_transpose_3 (Conv2DTr (None, 432, 432, 1)       577       
=================================================================
Total params: 49,761
Trainable params: 49,761
Non-trainable params: 0
_________________________________________________________________
Epoch 1/50
1/4 [======>.......................] - ETA: 0s - loss: 0.69492/4 [==============>...............] - ETA: 2s - loss: 
…
